…
2022-02-01 14:19:58.308632: I tensorflow/core/common_runtime/gpu/gpu_device.cc:1525] Created device /job:localhost/replica:0/task:0/device:GPU:0 with 22306 MB memory:  -> device: 0, name: GeForce RTX 3090, pci bus id: 0000:01:00.0, compute capability: 8.6
Model: "Seq2Point"
_________________________________________________________________
 Layer (type)                Output Shape              Param #   
=================================================================
 input_1 (InputLayer)        [(None, 19)]              0         
                                                                 
 reshape (Reshape)           (None, 1, 19, 1)          0         
                                                                 
 conv1d (Conv1D)             (None, 1, 19, 30)         330       
                                                                 
 conv1d_1 (Conv1D)           (None, 1, 19, 30)         7230      
                                                                 
 conv1d_2 (Conv1D)           (None, 1, 19, 40)         7240      
                                                                 
 conv1d_3 (Conv1D)           (None, 1, 19, 50)         10050     
                                                                 
 conv1d_4 (Conv1D)           (None, 1, 19, 50)         12550     
                                                                 
 flatten (Flatten)           (None, 950)               0         
                                                                 
 dense (Dense)               (None, 1024)              973824    
                                                                 
 dense_1 (Dense)             (None, 1)                 1025      
                                                                 
=================================================================
Total params: 1,012,249
Trainable params: 1,012,249
Non-trainable params: 0
_________________________________________________________________
Epoch 1/6000
2022-02-01 14:19:59.909148: I tensorflow/stream_executor/cuda/cuda_dnn.cc:366] Loaded cuDNN version 8201
2022-02-01 14:20:01.422922: I tensorflow/stream_executor/cuda/cuda_blas.cc:1774] TensorFloat-32 will be used for the matrix multiplication. This will only be logged once.
…
2022-02-01 14:25:55.937368: I tensorflow/core/common_runtime/gpu/gpu_device.cc:1525] Created device /job:localhost/replica:0/task:0/device:GPU:0 with 22306 MB memory:  -> device: 0, name: GeForce RTX 3090, pci bus id: 0000:01:00.0, compute capability: 8.6
Model: "Seq2Point"
_________________________________________________________________
 Layer (type)                Output Shape              Param #   
=================================================================
 input_1 (InputLayer)        [(None, 24)]              0         
                                                                 
 reshape (Reshape)           (None, 1, 24, 1)          0         
                                                                 
 conv1d (Conv1D)             (None, 1, 24, 30)         330       
                                                                 
 conv1d_1 (Conv1D)           (None, 1, 24, 30)         7230      
                                                                 
 conv1d_2 (Conv1D)           (None, 1, 24, 40)         7240      
                                                                 
 conv1d_3 (Conv1D)           (None, 1, 24, 50)         10050     
                                                                 
 conv1d_4 (Conv1D)           (None, 1, 24, 50)         12550     
                                                                 
 flatten (Flatten)           (None, 1200)              0         
                                                                 
 dense (Dense)               (None, 1024)              1229824   
                                                                 
 dense_1 (Dense)             (None, 1)                 1025      
                                                                 
=================================================================
Total params: 1,268,249
Trainable params: 1,268,249
Non-trainable params: 0
_________________________________________________________________
Epoch 1/6000
2022-02-01 14:25:57.280616: I tensorflow/stream_executor/cuda/cuda_dnn.cc:366] Loaded cuDNN version 8201
2022-02-01 14:25:58.842740: I tensorflow/stream_executor/cuda/cuda_blas.cc:1774] TensorFloat-32 will be used for the matrix multiplication. This will only be logged once.
…
2022-02-01 14:31:27.358894: I tensorflow/core/common_runtime/gpu/gpu_device.cc:1525] Created device /job:localhost/replica:0/task:0/device:GPU:0 with 22306 MB memory:  -> device: 0, name: GeForce RTX 3090, pci bus id: 0000:01:00.0, compute capability: 8.6
Model: "Seq2Point"
_________________________________________________________________
 Layer (type)                Output Shape              Param #   
=================================================================
 input_1 (InputLayer)        [(None, 99)]              0         
                                                                 
 reshape (Reshape)           (None, 1, 99, 1)          0         
                                                                 
 conv1d (Conv1D)             (None, 1, 99, 30)         330       
                                                                 
 conv1d_1 (Conv1D)           (None, 1, 99, 30)         7230      
                                                                 
 conv1d_2 (Conv1D)           (None, 1, 99, 40)         7240      
                                                                 
 conv1d_3 (Conv1D)           (None, 1, 99, 50)         10050     
                                                                 
 conv1d_4 (Conv1D)           (None, 1, 99, 50)         12550     
                                                                 
 flatten (Flatten)           (None, 4950)              0         
                                                                 
 dense (Dense)               (None, 1024)              5069824   
                                                                 
 dense_1 (Dense)             (None, 1)                 1025      
                                                                 
=================================================================
Total params: 5,108,249
Trainable params: 5,108,249
Non-trainable params: 0
_________________________________________________________________
Epoch 1/6000
2022-02-01 14:31:28.917967: I tensorflow/stream_executor/cuda/cuda_dnn.cc:366] Loaded cuDNN version 8201
2022-02-01 14:31:30.695815: I tensorflow/stream_executor/cuda/cuda_blas.cc:1774] TensorFloat-32 will be used for the matrix multiplication. This will only be logged once.
…
1012/1012 - 10s - loss: 0.0790 - val_loss: 0.3810 - 10s/epoch - 10ms/step
2022-02-03 08:23:12.898367: I tensorflow/core/common_runtime/gpu/gpu_device.cc:1525] Created device /job:localhost/replica:0/task:0/device:GPU:0 with 22306 MB memory:  -> device: 0, name: GeForce RTX 3090, pci bus id: 0000:01:00.0, compute capability: 8.6
Model: "Seq2Point"
_________________________________________________________________
 Layer (type)                Output Shape              Param #
=================================================================
 input_1 (InputLayer)        [(None, 43)]              0

 reshape (Reshape)           (None, 1, 43, 1)          0

 conv1d (Conv1D)             (None, 1, 43, 30)         330

 conv1d_1 (Conv1D)           (None, 1, 43, 30)         7230

 conv1d_2 (Conv1D)           (None, 1, 43, 40)         7240

 conv1d_3 (Conv1D)           (None, 1, 43, 50)         10050

 conv1d_4 (Conv1D)           (None, 1, 43, 50)         12550

 flatten (Flatten)           (None, 2150)              0

 dense (Dense)               (None, 1024)              2202624

 dense_1 (Dense)             (None, 1)                 1025

=================================================================
Total params: 2,241,049
Trainable params: 2,241,049
Non-trainable params: 0
_________________________________________________________________
Epoch 1/6000
1013/1013 - 13s - loss: 0.5594 - val_loss: 0.3757 - 13s/epoch - 13ms/step
Epoch 2/6000
1013/1013 - 9s - loss: 0.4507 - val_loss: 0.4009 - 9s/epoch - 9ms/step
Epoch 3/6000
1013/1013 - 9s - loss: 0.3839 - val_loss: 0.3616 - 9s/epoch - 9ms/step
…
2022-02-01 14:38:10.088943: I tensorflow/core/common_runtime/gpu/gpu_device.cc:1525] Created device /job:localhost/replica:0/task:0/device:GPU:0 with 22306 MB memory:  -> device: 0, name: GeForce RTX 3090, pci bus id: 0000:01:00.0, compute capability: 8.6
Model: "Seq2Point"
_________________________________________________________________
 Layer (type)                Output Shape              Param #   
=================================================================
 input_1 (InputLayer)        [(None, 111)]             0         
                                                                 
 reshape (Reshape)           (None, 1, 111, 1)         0         
                                                                 
 conv1d (Conv1D)             (None, 1, 111, 30)        330       
                                                                 
 conv1d_1 (Conv1D)           (None, 1, 111, 30)        7230      
                                                                 
 conv1d_2 (Conv1D)           (None, 1, 111, 40)        7240      
                                                                 
 conv1d_3 (Conv1D)           (None, 1, 111, 50)        10050     
                                                                 
 conv1d_4 (Conv1D)           (None, 1, 111, 50)        12550     
                                                                 
 flatten (Flatten)           (None, 5550)              0         
                                                                 
 dense (Dense)               (None, 1024)              5684224   
                                                                 
 dense_1 (Dense)             (None, 1)                 1025      
                                                                 
=================================================================
Total params: 5,722,649
Trainable params: 5,722,649
Non-trainable params: 0
_________________________________________________________________
Epoch 1/6000
2022-02-01 14:38:11.665377: I tensorflow/stream_executor/cuda/cuda_dnn.cc:366] Loaded cuDNN version 8201
2022-02-01 14:38:13.474063: I tensorflow/stream_executor/cuda/cuda_blas.cc:1774] TensorFloat-32 will be used for the matrix multiplication. This will only be logged once.
…
2022-02-01 14:44:46.733467: I tensorflow/core/common_runtime/gpu/gpu_device.cc:1525] Created device /job:localhost/replica:0/task:0/device:GPU:0 with 22306 MB memory:  -> device: 0, name: GeForce RTX 3090, pci bus id: 0000:01:00.0, compute capability: 8.6
Model: "Seq2Point"
_________________________________________________________________
 Layer (type)                Output Shape              Param #   
=================================================================
 input_1 (InputLayer)        [(None, 228)]             0         
                                                                 
 reshape (Reshape)           (None, 1, 228, 1)         0         
                                                                 
 conv1d (Conv1D)             (None, 1, 228, 30)        330       
                                                                 
 conv1d_1 (Conv1D)           (None, 1, 228, 30)        7230      
                                                                 
 conv1d_2 (Conv1D)           (None, 1, 228, 40)        7240      
                                                                 
 conv1d_3 (Conv1D)           (None, 1, 228, 50)        10050     
                                                                 
 conv1d_4 (Conv1D)           (None, 1, 228, 50)        12550     
                                                                 
 flatten (Flatten)           (None, 11400)             0         
                                                                 
 dense (Dense)               (None, 1024)              11674624  
                                                                 
 dense_1 (Dense)             (None, 1)                 1025      
                                                                 
=================================================================
Total params: 11,713,049
Trainable params: 11,713,049
Non-trainable params: 0
_________________________________________________________________
Epoch 1/6000
2022-02-01 14:44:48.416040: I tensorflow/stream_executor/cuda/cuda_dnn.cc:366] Loaded cuDNN version 8201
…
2022-02-01 14:54:38.380636: I tensorflow/core/common_runtime/gpu/gpu_device.cc:1525] Created device /job:localhost/replica:0/task:0/device:GPU:0 with 22306 MB memory:  -> device: 0, name: GeForce RTX 3090, pci bus id: 0000:01:00.0, compute capability: 8.6
Model: "Seq2Point"
_________________________________________________________________
 Layer (type)                Output Shape              Param #   
=================================================================
 input_1 (InputLayer)        [(None, 255)]             0         
                                                                 
 reshape (Reshape)           (None, 1, 255, 1)         0         
                                                                 
 conv1d (Conv1D)             (None, 1, 255, 30)        330       
                                                                 
 conv1d_1 (Conv1D)           (None, 1, 255, 30)        7230      
                                                                 
 conv1d_2 (Conv1D)           (None, 1, 255, 40)        7240      
                                                                 
 conv1d_3 (Conv1D)           (None, 1, 255, 50)        10050     
                                                                 
 conv1d_4 (Conv1D)           (None, 1, 255, 50)        12550     
                                                                 
 flatten (Flatten)           (None, 12750)             0         
                                                                 
 dense (Dense)               (None, 1024)              13057024  
                                                                 
 dense_1 (Dense)             (None, 1)                 1025      
                                                                 
=================================================================
Total params: 13,095,449
Trainable params: 13,095,449
Non-trainable params: 0
_________________________________________________________________
Epoch 1/6000
2022-02-01 14:54:40.408652: I tensorflow/stream_executor/cuda/cuda_dnn.cc:366] Loaded cuDNN version 8201
…
2022-02-01 15:02:41.401027: I tensorflow/core/common_runtime/gpu/gpu_device.cc:1525] Created device /job:localhost/replica:0/task:0/device:GPU:0 with 22306 MB memory:  -> device: 0, name: GeForce RTX 3090, pci bus id: 0000:01:00.0, compute capability: 8.6
Model: "Seq2Point"
_________________________________________________________________
 Layer (type)                Output Shape              Param #   
=================================================================
 input_1 (InputLayer)        [(None, 1162)]            0         
                                                                 
 reshape (Reshape)           (None, 1, 1162, 1)        0         
                                                                 
 conv1d (Conv1D)             (None, 1, 1162, 30)       330       
                                                                 
 conv1d_1 (Conv1D)           (None, 1, 1162, 30)       7230      
                                                                 
 conv1d_2 (Conv1D)           (None, 1, 1162, 40)       7240      
                                                                 
 conv1d_3 (Conv1D)           (None, 1, 1162, 50)       10050     
                                                                 
 conv1d_4 (Conv1D)           (None, 1, 1162, 50)       12550     
                                                                 
 flatten (Flatten)           (None, 58100)             0         
                                                                 
 dense (Dense)               (None, 1024)              59495424  
                                                                 
 dense_1 (Dense)             (None, 1)                 1025      
                                                                 
=================================================================
Total params: 59,533,849
Trainable params: 59,533,849
Non-trainable params: 0
_________________________________________________________________
Epoch 1/6000
2022-02-01 15:02:44.643241: I tensorflow/stream_executor/cuda/cuda_dnn.cc:366] Loaded cuDNN version 8201
…
2022-02-01 15:36:12.600553: I tensorflow/core/common_runtime/gpu/gpu_device.cc:1525] Created device /job:localhost/replica:0/task:0/device:GPU:0 with 22306 MB memory:  -> device: 0, name: GeForce RTX 3090, pci bus id: 0000:01:00.0, compute capability: 8.6
Model: "Seq2Point"
_________________________________________________________________
 Layer (type)                Output Shape              Param #   
=================================================================
 input_1 (InputLayer)        [(None, 178)]             0         
                                                                 
 reshape (Reshape)           (None, 1, 178, 1)         0         
                                                                 
 conv1d (Conv1D)             (None, 1, 178, 30)        330       
                                                                 
 conv1d_1 (Conv1D)           (None, 1, 178, 30)        7230      
                                                                 
 conv1d_2 (Conv1D)           (None, 1, 178, 40)        7240      
                                                                 
 conv1d_3 (Conv1D)           (None, 1, 178, 50)        10050     
                                                                 
 conv1d_4 (Conv1D)           (None, 1, 178, 50)        12550     
                                                                 
 flatten (Flatten)           (None, 8900)              0         
                                                                 
 dense (Dense)               (None, 1024)              9114624   
                                                                 
 dense_1 (Dense)             (None, 1)                 1025      
                                                                 
=================================================================
Total params: 9,153,049
Trainable params: 9,153,049
Non-trainable params: 0
_________________________________________________________________
Epoch 1/6000
2022-02-01 15:36:14.301444: I tensorflow/stream_executor/cuda/cuda_dnn.cc:366] Loaded cuDNN version 8201
2022-02-01 15:36:15.818767: I tensorflow/stream_executor/cuda/cuda_blas.cc:1774] TensorFloat-32 will be used for the matrix multiplication. This will only be logged once.
…
1011/1011 - 10s - loss: 0.0129 - val_loss: 0.5629 - 10s/epoch - 10ms/step
2022-02-03 08:29:56.304226: I tensorflow/core/common_runtime/gpu/gpu_device.cc:1525] Created device /job:localhost/replica:0/task:0/device:GPU:0 with 22306 MB memory:  -> device: 0, name: GeForce RTX 3090, pci bus id: 0000:01:00.0, compute capability: 8.6
Model: "Seq2Point"
_________________________________________________________________
 Layer (type)                Output Shape              Param #
=================================================================
 input_1 (InputLayer)        [(None, 298)]             0

 reshape (Reshape)           (None, 1, 298, 1)         0

 conv1d (Conv1D)             (None, 1, 298, 30)        330

 conv1d_1 (Conv1D)           (None, 1, 298, 30)        7230

 conv1d_2 (Conv1D)           (None, 1, 298, 40)        7240

 conv1d_3 (Conv1D)           (None, 1, 298, 50)        10050

 conv1d_4 (Conv1D)           (None, 1, 298, 50)        12550

 flatten (Flatten)           (None, 14900)             0

 dense (Dense)               (None, 1024)              15258624

 dense_1 (Dense)             (None, 1)                 1025

=================================================================
Total params: 15,297,049
Trainable params: 15,297,049
Non-trainable params: 0
_________________________________________________________________
Epoch 1/6000
1010/1010 - 17s - loss: 0.3059 - val_loss: 0.2702 - 17s/epoch - 17ms/step
Epoch 2/6000
1010/1010 - 13s - loss: 0.0635 - val_loss: 0.2466 - 13s/epoch - 13ms/step
Epoch 3/6000
1010/1010 - 13s - loss: 0.0341 - val_loss: 0.2586 - 13s/epoch - 13ms/step
…
2022-02-01 15:46:12.376726: I tensorflow/core/common_runtime/gpu/gpu_device.cc:1525] Created device /job:localhost/replica:0/task:0/device:GPU:0 with 22306 MB memory:  -> device: 0, name: GeForce RTX 3090, pci bus id: 0000:01:00.0, compute capability: 8.6
Model: "Seq2Point"
_________________________________________________________________
 Layer (type)                Output Shape              Param #   
=================================================================
 input_1 (InputLayer)        [(None, 528)]             0         
                                                                 
 reshape (Reshape)           (None, 1, 528, 1)         0         
                                                                 
 conv1d (Conv1D)             (None, 1, 528, 30)        330       
                                                                 
 conv1d_1 (Conv1D)           (None, 1, 528, 30)        7230      
                                                                 
 conv1d_2 (Conv1D)           (None, 1, 528, 40)        7240      
                                                                 
 conv1d_3 (Conv1D)           (None, 1, 528, 50)        10050     
                                                                 
 conv1d_4 (Conv1D)           (None, 1, 528, 50)        12550     
                                                                 
 flatten (Flatten)           (None, 26400)             0         
                                                                 
 dense (Dense)               (None, 1024)              27034624  
                                                                 
 dense_1 (Dense)             (None, 1)                 1025      
                                                                 
=================================================================
Total params: 27,073,049
Trainable params: 27,073,049
Non-trainable params: 0
_________________________________________________________________
Epoch 1/6000
2022-02-01 15:46:15.058099: I tensorflow/stream_executor/cuda/cuda_dnn.cc:366] Loaded cuDNN version 8201
…
2022-02-01 16:04:27.816180: I tensorflow/core/common_runtime/gpu/gpu_device.cc:1525] Created device /job:localhost/replica:0/task:0/device:GPU:0 with 22306 MB memory:  -> device: 0, name: GeForce RTX 3090, pci bus id: 0000:01:00.0, compute capability: 8.6
Model: "Seq2Point"
_________________________________________________________________
 Layer (type)                Output Shape              Param #   
=================================================================
 input_1 (InputLayer)        [(None, 879)]             0         
                                                                 
 reshape (Reshape)           (None, 1, 879, 1)         0         
                                                                 
 conv1d (Conv1D)             (None, 1, 879, 30)        330       
                                                                 
 conv1d_1 (Conv1D)           (None, 1, 879, 30)        7230      
                                                                 
 conv1d_2 (Conv1D)           (None, 1, 879, 40)        7240      
                                                                 
 conv1d_3 (Conv1D)           (None, 1, 879, 50)        10050     
                                                                 
 conv1d_4 (Conv1D)           (None, 1, 879, 50)        12550     
                                                                 
 flatten (Flatten)           (None, 43950)             0         
                                                                 
 dense (Dense)               (None, 1024)              45005824  
                                                                 
 dense_1 (Dense)             (None, 1)                 1025      
                                                                 
=================================================================
Total params: 45,044,249
Trainable params: 45,044,249
Non-trainable params: 0
_________________________________________________________________
Epoch 1/6000
2022-02-01 16:04:30.632002: I tensorflow/stream_executor/cuda/cuda_dnn.cc:366] Loaded cuDNN version 8201
…
2022-02-01 16:34:17.791181: I tensorflow/core/common_runtime/gpu/gpu_device.cc:1525] Created device /job:localhost/replica:0/task:0/device:GPU:0 with 22306 MB memory:  -> device: 0, name: GeForce RTX 3090, pci bus id: 0000:01:00.0, compute capability: 8.6
Model: "Seq2Point"
_________________________________________________________________
 Layer (type)                Output Shape              Param #   
=================================================================
 input_1 (InputLayer)        [(None, 1023)]            0         
                                                                 
 reshape (Reshape)           (None, 1, 1023, 1)        0         
                                                                 
 conv1d (Conv1D)             (None, 1, 1023, 30)       330       
                                                                 
 conv1d_1 (Conv1D)           (None, 1, 1023, 30)       7230      
                                                                 
 conv1d_2 (Conv1D)           (None, 1, 1023, 40)       7240      
                                                                 
 conv1d_3 (Conv1D)           (None, 1, 1023, 50)       10050     
                                                                 
 conv1d_4 (Conv1D)           (None, 1, 1023, 50)       12550     
                                                                 
 flatten (Flatten)           (None, 51150)             0         
                                                                 
 dense (Dense)               (None, 1024)              52378624  
                                                                 
 dense_1 (Dense)             (None, 1)                 1025      
                                                                 
=================================================================
Total params: 52,417,049
Trainable params: 52,417,049
Non-trainable params: 0
_________________________________________________________________
Epoch 1/6000
2022-02-01 16:34:21.694359: I tensorflow/stream_executor/cuda/cuda_dnn.cc:366] Loaded cuDNN version 8201
…
2022-02-01 17:05:19.001051: I tensorflow/core/common_runtime/gpu/gpu_device.cc:1525] Created device /job:localhost/replica:0/task:0/device:GPU:0 with 22306 MB memory:  -> device: 0, name: GeForce RTX 3090, pci bus id: 0000:01:00.0, compute capability: 8.6
Model: "Seq2Point"
_________________________________________________________________
 Layer (type)                Output Shape              Param #   
=================================================================
 input_1 (InputLayer)        [(None, 1320)]            0         
                                                                 
 reshape (Reshape)           (None, 1, 1320, 1)        0         
                                                                 
 conv1d (Conv1D)             (None, 1, 1320, 30)       330       
                                                                 
 conv1d_1 (Conv1D)           (None, 1, 1320, 30)       7230      
                                                                 
 conv1d_2 (Conv1D)           (None, 1, 1320, 40)       7240      
                                                                 
 conv1d_3 (Conv1D)           (None, 1, 1320, 50)       10050     
                                                                 
 conv1d_4 (Conv1D)           (None, 1, 1320, 50)       12550     
                                                                 
 flatten (Flatten)           (None, 66000)             0         
                                                                 
 dense (Dense)               (None, 1024)              67585024  
                                                                 
 dense_1 (Dense)             (None, 1)                 1025      
                                                                 
=================================================================
Total params: 67,623,449
Trainable params: 67,623,449
Non-trainable params: 0
_________________________________________________________________
Epoch 1/6000
2022-02-01 17:05:22.721066: I tensorflow/stream_executor/cuda/cuda_dnn.cc:366] Loaded cuDNN version 8201
…
2022-02-01 17:42:25.733428: I tensorflow/core/common_runtime/gpu/gpu_device.cc:1525] Created device /job:localhost/replica:0/task:0/device:GPU:0 with 22306 MB memory:  -> device: 0, name: GeForce RTX 3090, pci bus id: 0000:01:00.0, compute capability: 8.6
Model: "Seq2Point"
_________________________________________________________________
 Layer (type)                Output Shape              Param #   
=================================================================
 input_1 (InputLayer)        [(None, 1972)]            0         
                                                                 
 reshape (Reshape)           (None, 1, 1972, 1)        0         
                                                                 
 conv1d (Conv1D)             (None, 1, 1972, 30)       330       
                                                                 
 conv1d_1 (Conv1D)           (None, 1, 1972, 30)       7230      
                                                                 
 conv1d_2 (Conv1D)           (None, 1, 1972, 40)       7240      
                                                                 
 conv1d_3 (Conv1D)           (None, 1, 1972, 50)       10050     
                                                                 
 conv1d_4 (Conv1D)           (None, 1, 1972, 50)       12550     
                                                                 
 flatten (Flatten)           (None, 98600)             0         
                                                                 
 dense (Dense)               (None, 1024)              100967424 
                                                                 
 dense_1 (Dense)             (None, 1)                 1025      
                                                                 
=================================================================
Total params: 101,005,849
Trainable params: 101,005,849
Non-trainable params: 0
_________________________________________________________________
Epoch 1/6000
2022-02-01 17:42:30.361326: I tensorflow/stream_executor/cuda/cuda_dnn.cc:366] Loaded cuDNN version 8201
…
990/990 - 59s - loss: 0.0059 - val_loss: 0.6417 - 59s/epoch - 59ms/step
2022-02-03 08:39:30.429884: I tensorflow/core/common_runtime/gpu/gpu_device.cc:1525] Created device /job:localhost/replica:0/task:0/device:GPU:0 with 22306 MB memory:  -> device: 0, name: GeForce RTX 3090, pci bus id: 0000:01:00.0, compute capability: 8.6
Model: "Seq2Point"
_________________________________________________________________
 Layer (type)                Output Shape              Param #
=================================================================
 input_1 (InputLayer)        [(None, 94)]              0

 reshape (Reshape)           (None, 1, 94, 1)          0

 conv1d (Conv1D)             (None, 1, 94, 30)         330

 conv1d_1 (Conv1D)           (None, 1, 94, 30)         7230

 conv1d_2 (Conv1D)           (None, 1, 94, 40)         7240

 conv1d_3 (Conv1D)           (None, 1, 94, 50)         10050

 conv1d_4 (Conv1D)           (None, 1, 94, 50)         12550

 flatten (Flatten)           (None, 4700)              0

 dense (Dense)               (None, 1024)              4813824

 dense_1 (Dense)             (None, 1)                 1025

=================================================================
Total params: 4,852,249
Trainable params: 4,852,249
Non-trainable params: 0
_________________________________________________________________
Epoch 1/6000
1012/1012 - 14s - loss: 0.7845 - val_loss: 1.4093 - 14s/epoch - 14ms/step
Epoch 2/6000
1012/1012 - 9s - loss: 0.5080 - val_loss: 0.9947 - 9s/epoch - 9ms/step
Epoch 3/6000
1012/1012 - 9s - loss: 0.3628 - val_loss: 1.1711 - 9s/epoch - 9ms/step
…
2022-02-01 18:43:18.782538: I tensorflow/core/common_runtime/gpu/gpu_device.cc:1525] Created device /job:localhost/replica:0/task:0/device:GPU:0 with 22306 MB memory:  -> device: 0, name: GeForce RTX 3090, pci bus id: 0000:01:00.0, compute capability: 8.6
Model: "Seq2Point"
_________________________________________________________________
 Layer (type)                Output Shape              Param #   
=================================================================
 input_1 (InputLayer)        [(None, 106)]             0         
                                                                 
 reshape (Reshape)           (None, 1, 106, 1)         0         
                                                                 
 conv1d (Conv1D)             (None, 1, 106, 30)        330       
                                                                 
 conv1d_1 (Conv1D)           (None, 1, 106, 30)        7230      
                                                                 
 conv1d_2 (Conv1D)           (None, 1, 106, 40)        7240      
                                                                 
 conv1d_3 (Conv1D)           (None, 1, 106, 50)        10050     
                                                                 
 conv1d_4 (Conv1D)           (None, 1, 106, 50)        12550     
                                                                 
 flatten (Flatten)           (None, 5300)              0         
                                                                 
 dense (Dense)               (None, 1024)              5428224   
                                                                 
 dense_1 (Dense)             (None, 1)                 1025      
                                                                 
=================================================================
Total params: 5,466,649
Trainable params: 5,466,649
Non-trainable params: 0
_________________________________________________________________
Epoch 1/6000
2022-02-01 18:43:20.549572: I tensorflow/stream_executor/cuda/cuda_dnn.cc:366] Loaded cuDNN version 8201
2022-02-01 18:43:22.591643: I tensorflow/stream_executor/cuda/cuda_blas.cc:1774] TensorFloat-32 will be used for the matrix multiplication. This will only be logged once.
…
2022-02-01 18:49:10.428750: I tensorflow/core/common_runtime/gpu/gpu_device.cc:1525] Created device /job:localhost/replica:0/task:0/device:GPU:0 with 22306 MB memory:  -> device: 0, name: GeForce RTX 3090, pci bus id: 0000:01:00.0, compute capability: 8.6
Model: "Seq2Point"
_________________________________________________________________
 Layer (type)                Output Shape              Param #   
=================================================================
 input_1 (InputLayer)        [(None, 400)]             0         
                                                                 
 reshape (Reshape)           (None, 1, 400, 1)         0         
                                                                 
 conv1d (Conv1D)             (None, 1, 400, 30)        330       
                                                                 
 conv1d_1 (Conv1D)           (None, 1, 400, 30)        7230      
                                                                 
 conv1d_2 (Conv1D)           (None, 1, 400, 40)        7240      
                                                                 
 conv1d_3 (Conv1D)           (None, 1, 400, 50)        10050     
                                                                 
 conv1d_4 (Conv1D)           (None, 1, 400, 50)        12550     
                                                                 
 flatten (Flatten)           (None, 20000)             0         
                                                                 
 dense (Dense)               (None, 1024)              20481024  
                                                                 
 dense_1 (Dense)             (None, 1)                 1025      
                                                                 
=================================================================
Total params: 20,519,449
Trainable params: 20,519,449
Non-trainable params: 0
_________________________________________________________________
Epoch 1/6000
2022-02-01 18:49:12.976443: I tensorflow/stream_executor/cuda/cuda_dnn.cc:366] Loaded cuDNN version 8201
…
2022-02-01 19:02:56.308670: I tensorflow/core/common_runtime/gpu/gpu_device.cc:1525] Created device /job:localhost/replica:0/task:0/device:GPU:0 with 22306 MB memory:  -> device: 0, name: GeForce RTX 3090, pci bus id: 0000:01:00.0, compute capability: 8.6
Model: "Seq2Point"
_________________________________________________________________
 Layer (type)                Output Shape              Param #   
=================================================================
 input_1 (InputLayer)        [(None, 511)]             0         
                                                                 
 reshape (Reshape)           (None, 1, 511, 1)         0         
                                                                 
 conv1d (Conv1D)             (None, 1, 511, 30)        330       
                                                                 
 conv1d_1 (Conv1D)           (None, 1, 511, 30)        7230      
                                                                 
 conv1d_2 (Conv1D)           (None, 1, 511, 40)        7240      
                                                                 
 conv1d_3 (Conv1D)           (None, 1, 511, 50)        10050     
                                                                 
 conv1d_4 (Conv1D)           (None, 1, 511, 50)        12550     
                                                                 
 flatten (Flatten)           (None, 25550)             0         
                                                                 
 dense (Dense)               (None, 1024)              26164224  
                                                                 
 dense_1 (Dense)             (None, 1)                 1025      
                                                                 
=================================================================
Total params: 26,202,649
Trainable params: 26,202,649
Non-trainable params: 0
_________________________________________________________________
Epoch 1/6000
2022-02-01 19:02:58.535349: I tensorflow/stream_executor/cuda/cuda_dnn.cc:366] Loaded cuDNN version 8201
…
2022-02-01 19:20:05.072795: I tensorflow/core/common_runtime/gpu/gpu_device.cc:1525] Created device /job:localhost/replica:0/task:0/device:GPU:0 with 22306 MB memory:  -> device: 0, name: GeForce RTX 3090, pci bus id: 0000:01:00.0, compute capability: 8.6
Model: "Seq2Point"
_________________________________________________________________
 Layer (type)                Output Shape              Param #   
=================================================================
 input_1 (InputLayer)        [(None, 874)]             0         
                                                                 
 reshape (Reshape)           (None, 1, 874, 1)         0         
                                                                 
 conv1d (Conv1D)             (None, 1, 874, 30)        330       
                                                                 
 conv1d_1 (Conv1D)           (None, 1, 874, 30)        7230      
                                                                 
 conv1d_2 (Conv1D)           (None, 1, 874, 40)        7240      
                                                                 
 conv1d_3 (Conv1D)           (None, 1, 874, 50)        10050     
                                                                 
 conv1d_4 (Conv1D)           (None, 1, 874, 50)        12550     
                                                                 
 flatten (Flatten)           (None, 43700)             0         
                                                                 
 dense (Dense)               (None, 1024)              44749824  
                                                                 
 dense_1 (Dense)             (None, 1)                 1025      
                                                                 
=================================================================
Total params: 44,788,249
Trainable params: 44,788,249
Non-trainable params: 0
_________________________________________________________________
Epoch 1/6000
2022-02-01 19:20:08.583462: I tensorflow/stream_executor/cuda/cuda_dnn.cc:366] Loaded cuDNN version 8201
…
2022-02-01 19:55:04.509118: I tensorflow/core/common_runtime/gpu/gpu_device.cc:1525] Created device /job:localhost/replica:0/task:0/device:GPU:0 with 22306 MB memory:  -> device: 0, name: GeForce RTX 3090, pci bus id: 0000:01:00.0, compute capability: 8.6
Model: "Seq2Point"
_________________________________________________________________
 Layer (type)                Output Shape              Param #   
=================================================================
 input_1 (InputLayer)        [(None, 983)]             0         
                                                                 
 reshape (Reshape)           (None, 1, 983, 1)         0         
                                                                 
 conv1d (Conv1D)             (None, 1, 983, 30)        330       
                                                                 
 conv1d_1 (Conv1D)           (None, 1, 983, 30)        7230      
                                                                 
 conv1d_2 (Conv1D)           (None, 1, 983, 40)        7240      
                                                                 
 conv1d_3 (Conv1D)           (None, 1, 983, 50)        10050     
                                                                 
 conv1d_4 (Conv1D)           (None, 1, 983, 50)        12550     
                                                                 
 flatten (Flatten)           (None, 49150)             0         
                                                                 
 dense (Dense)               (None, 1024)              50330624  
                                                                 
 dense_1 (Dense)             (None, 1)                 1025      
                                                                 
=================================================================
Total params: 50,369,049
Trainable params: 50,369,049
Non-trainable params: 0
_________________________________________________________________
Epoch 1/6000
2022-02-01 19:55:07.513524: I tensorflow/stream_executor/cuda/cuda_dnn.cc:366] Loaded cuDNN version 8201
…
2022-02-01 20:31:27.199779: I tensorflow/core/common_runtime/gpu/gpu_device.cc:1525] Created device /job:localhost/replica:0/task:0/device:GPU:0 with 22306 MB memory:  -> device: 0, name: GeForce RTX 3090, pci bus id: 0000:01:00.0, compute capability: 8.6
Model: "Seq2Point"
_________________________________________________________________
 Layer (type)                Output Shape              Param #   
=================================================================
 input_1 (InputLayer)        [(None, 1688)]            0         
                                                                 
 reshape (Reshape)           (None, 1, 1688, 1)        0         
                                                                 
 conv1d (Conv1D)             (None, 1, 1688, 30)       330       
                                                                 
 conv1d_1 (Conv1D)           (None, 1, 1688, 30)       7230      
                                                                 
 conv1d_2 (Conv1D)           (None, 1, 1688, 40)       7240      
                                                                 
 conv1d_3 (Conv1D)           (None, 1, 1688, 50)       10050     
                                                                 
 conv1d_4 (Conv1D)           (None, 1, 1688, 50)       12550     
                                                                 
 flatten (Flatten)           (None, 84400)             0         
                                                                 
 dense (Dense)               (None, 1024)              86426624  
                                                                 
 dense_1 (Dense)             (None, 1)                 1025      
                                                                 
=================================================================
Total params: 86,465,049
Trainable params: 86,465,049
Non-trainable params: 0
_________________________________________________________________
Epoch 1/6000
2022-02-01 20:31:32.746445: I tensorflow/stream_executor/cuda/cuda_dnn.cc:366] Loaded cuDNN version 8201
…
2022-01-31 22:15:44.253870: I tensorflow/core/common_runtime/gpu/gpu_device.cc:1525] Created device /job:localhost/replica:0/task:0/device:GPU:0 with 2641 MB memory:  -> device: 0, name: NVIDIA GeForce GTX 1650, pci bus id: 0000:01:00.0, compute capability: 7.5
  super(Adam, self).__init__(name, **kwargs)
Model: "bidirGRU"
_________________________________________________________________
 Layer (type)                Output Shape              Param #   
=================================================================
 input_1 (InputLayer)        [(None, 63)]              0         
                                                                 
 reshape (Reshape)           (None, 63, 1)             0         
                                                                 
 conv1d (Conv1D)             (None, 61, 100)           400       
                                                                 
 conv1d_1 (Conv1D)           (None, 59, 100)           30100     
                                                                 
 global_max_pooling1d (Globa  (None, 100)              0         
 lMaxPooling1D)                                                  
                                                                 
 reshape_1 (Reshape)         (None, 100, 1)            0         
                                                                 
 bidirectional (Bidirectiona  (None, 200)              61800     
 l)                                                              
                                                                 
 dense (Dense)               (None, 1)                 201       
                                                                 
=================================================================
Total params: 92,501
Trainable params: 92,501
Non-trainable params: 0
_________________________________________________________________
Epoch 1/6000
2022-01-31 22:15:46.864626: I tensorflow/stream_executor/cuda/cuda_dnn.cc:366] Loaded cuDNN version 8101
173/173 - 13s - loss: 0.4753 - acc: 0.9159 - val_loss: 0.3303 - val_acc: 0.9172 - 13s/epoch - 77ms/step
…
166/166 - 8s - loss: 0.0584 - acc: 0.9849 - val_loss: 0.4246 - val_acc: 0.8573 - 8s/epoch - 48ms/step
Epoch 16/6000
166/166 - 8s - loss: 0.0551 - acc: 0.9858 - val_loss: 0.4162 - val_acc: 0.8575 - 8s/epoch - 48ms/step
2022-02-03 15:34:06.360802: I tensorflow/core/common_runtime/gpu/gpu_device.cc:1525] Created device /job:localhost/replica:0/task:0/device:GPU:0 with 22306 MB memory:  -> device: 0, name: GeForce RTX 3090, pci bus id: 0000:01:00.0, compute capability: 8.6
 Layer (type)                Output Shape              Param #
=================================================================
 input_1 (InputLayer)        [(None, 85)]              0

 reshape (Reshape)           (None, 85, 1)             0

 conv1d (Conv1D)             (None, 83, 100)           400

 conv1d_1 (Conv1D)           (None, 81, 100)           30100

 global_max_pooling1d (Globa  (None, 100)              0
 lMaxPooling1D)

 reshape_1 (Reshape)         (None, 100, 1)            0
                                                                  
bidirectional (Bidirectiona  (None, 200)              61800
 l)

 dense (Dense)               (None, 1)                 201

=================================================================
Total params: 92,501
Trainable params: 92,501
Non-trainable params: 0
_________________________________________________________________
Epoch 1/6000
172/172 - 10s - loss: 0.4787 - acc: 0.9100 - val_loss: 0.3425 - val_acc: 0.9188 - 10s/epoch - 55ms/step
Epoch 2/6000
172/172 - 4s - loss: 0.2812 - acc: 0.9198 - val_loss: 0.2842 - val_acc: 0.9188 - 4s/epoch - 20ms/step
…
2022-01-31 22:30:41.144741: I tensorflow/core/common_runtime/gpu/gpu_device.cc:1525] Created device /job:localhost/replica:0/task:0/device:GPU:0 with 2641 MB memory:  -> device: 0, name: NVIDIA GeForce GTX 1650, pci bus id: 0000:01:00.0, compute capability: 7.5
Model: "bidirGRU"
_________________________________________________________________
 Layer (type)                Output Shape              Param #   
=================================================================
 input_1 (InputLayer)        [(None, 92)]              0         
                                                                 
 reshape (Reshape)           (None, 92, 1)             0         
                                                                 
 conv1d (Conv1D)             (None, 90, 100)           400       
                                                                 
 conv1d_1 (Conv1D)           (None, 88, 100)           30100     
                                                                 
 global_max_pooling1d (Globa  (None, 100)              0         
 lMaxPooling1D)                                                  
                                                                 
 reshape_1 (Reshape)         (None, 100, 1)            0         
                                                                 
 bidirectional (Bidirectiona  (None, 200)              61800     
 l)                                                              
                                                                 
 dense (Dense)               (None, 1)                 201       
                                                                 
=================================================================
Total params: 92,501
Trainable params: 92,501
Non-trainable params: 0
_________________________________________________________________
Epoch 1/6000
2022-01-31 22:30:43.955614: I tensorflow/stream_executor/cuda/cuda_dnn.cc:366] Loaded cuDNN version 8101
172/172 - 13s - loss: 0.4629 - acc: 0.9204 - val_loss: 0.3428 - val_acc: 0.9194 - 13s/epoch - 76ms/step
…
2022-01-31 22:41:10.902412: I tensorflow/core/common_runtime/gpu/gpu_device.cc:1525] Created device /job:localhost/replica:0/task:0/device:GPU:0 with 2641 MB memory:  -> device: 0, name: NVIDIA GeForce GTX 1650, pci bus id: 0000:01:00.0, compute capability: 7.5
  super(Adam, self).__init__(name, **kwargs)
Model: "bidirGRU"
_________________________________________________________________
 Layer (type)                Output Shape              Param #   
=================================================================
 input_1 (InputLayer)        [(None, 197)]             0         
                                                                 
 reshape (Reshape)           (None, 197, 1)            0         
                                                                 
 conv1d (Conv1D)             (None, 195, 100)          400       
                                                                 
 conv1d_1 (Conv1D)           (None, 193, 100)          30100     
                                                                 
 global_max_pooling1d (Globa  (None, 100)              0         
 lMaxPooling1D)                                                  
                                                                 
 reshape_1 (Reshape)         (None, 100, 1)            0         
                                                                 
 bidirectional (Bidirectiona  (None, 200)              61800     
 l)                                                              
                                                                 
 dense (Dense)               (None, 1)                 201       
                                                                 
=================================================================
Total params: 92,501
Trainable params: 92,501
Non-trainable params: 0
_________________________________________________________________
Epoch 1/6000
2022-01-31 22:41:13.615470: I tensorflow/stream_executor/cuda/cuda_dnn.cc:366] Loaded cuDNN version 8101
169/169 - 15s - loss: 0.4863 - acc: 0.8741 - val_loss: 0.3264 - val_acc: 0.9275 - 15s/epoch - 90ms/step
…
2022-01-31 22:53:52.418027: I tensorflow/core/common_runtime/gpu/gpu_device.cc:1525] Created device /job:localhost/replica:0/task:0/device:GPU:0 with 2641 MB memory:  -> device: 0, name: NVIDIA GeForce GTX 1650, pci bus id: 0000:01:00.0, compute capability: 7.5
  super(Adam, self).__init__(name, **kwargs)
Model: "bidirGRU"
_________________________________________________________________
 Layer (type)                Output Shape              Param #   
=================================================================
 input_1 (InputLayer)        [(None, 300)]             0         
                                                                 
 reshape (Reshape)           (None, 300, 1)            0         
                                                                 
 conv1d (Conv1D)             (None, 298, 100)          400       
                                                                 
 conv1d_1 (Conv1D)           (None, 296, 100)          30100     
                                                                 
 global_max_pooling1d (Globa  (None, 100)              0         
 lMaxPooling1D)                                                  
                                                                 
 reshape_1 (Reshape)         (None, 100, 1)            0         
                                                                 
 bidirectional (Bidirectiona  (None, 200)              61800     
 l)                                                              
                                                                 
 dense (Dense)               (None, 1)                 201       
                                                                 
=================================================================
Total params: 92,501
Trainable params: 92,501
Non-trainable params: 0
_________________________________________________________________
Epoch 1/6000
2022-01-31 22:53:55.143288: I tensorflow/stream_executor/cuda/cuda_dnn.cc:366] Loaded cuDNN version 8101
166/166 - 18s - loss: 0.4447 - acc: 0.9370 - val_loss: 0.3166 - val_acc: 0.9358 - 18s/epoch - 106ms/step
…
159/159 - 13s - loss: 0.0950 - acc: 0.9466 - val_loss: 0.3776 - val_acc: 0.9466 - 13s/epoch - 83ms/step
2022-02-08 14:13:08.341592: I tensorflow/core/common_runtime/gpu/gpu_device.cc:1525] Created device /job:localhost/replica:0/task:0/device:GPU:0 with 19045 MB memory:  -> device: 0, name: GeForce RTX 3090, pci bus id: 0000:01:00.0, compute capability: 8.6
Model: "bidirGRU"
_________________________________________________________________
 Layer (type)                Output Shape              Param #
=================================================================
 input_1 (InputLayer)        [(None, 493)]             0

 reshape (Reshape)           (None, 493, 1)            0

 conv1d (Conv1D)             (None, 491, 100)          400

 conv1d_1 (Conv1D)           (None, 489, 100)          30100

 global_max_pooling1d (Globa  (None, 100)              0
 lMaxPooling1D)

 reshape_1 (Reshape)         (None, 100, 1)            0

 bidirectional (Bidirectiona  (None, 200)              61800
 l)

 dense (Dense)               (None, 1)                 201

=================================================================
Total params: 92,501
Trainable params: 92,501
Non-trainable params: 0
_________________________________________________________________
Epoch 1/6000
160/160 - 12s - loss: 0.4003 - acc: 0.9534 - val_loss: 0.2644 - val_acc: 0.9520 - 12s/epoch - 73ms/step
Epoch 2/6000
160/160 - 5s - loss: 0.1990 - acc: 0.9534 - val_loss: 0.1838 - val_acc: 0.9520 - 5s/epoch - 33ms/step
…
